assignment4/2022201068_assignment4/models/multinli/elmo_finetuned_mnli.pth (torch, 7671 bytes, 2 tensors)

weight f4 [3, 400]
000000 9a d6 8f be f1 15 0a 3e 68 38 af bf c3 e8 aa be
       -0.28093415 0.13484932 -1.3689089 -0.33380708
000010 a6 3a a5 bf 3b 8b 5d 3f 83 5b c9 bf 92 d1 16 3f
       -1.2908523 0.86540574 -1.5731052 0.5891353
000020 2c a7 d2 3d 09 18 f4 be 66 a2 b5 bf 58 22 21 40
       0.10285792 -0.47674587 -1.4190185 2.5177212
000030 12 6c 97 bf 3d 2a c2 3f 50 d9 db 3e 22 11 f2 3f
       -1.1829855 1.516914 0.42939234 1.8911479
000040 15 6a 87 bf 74 ab a4 3e 93 ff b0 3f aa fc c6 3f
       -1.0579249 0.32162058 1.3827995 1.5545857
000050 11 2e 23 bf fa ab 2d bf 34 db 60 bf 18 6d 8e 3e
       -0.63742167 -0.6784054 -0.8783448 0.27817607
000060 8b 39 31 3e 92 18 1c bf 63 c8 b0 3f 63 1c e0 bf
       0.17307107 -0.6097499 1.3811153 -1.7508663
000070 82 34 82 3e 89 85 01 bf 18 e9 1c bb 17 16 5b bf
       0.25430685 -0.50594383 -0.0023942646 -0.8558058
000080 59 f4 16 be 3d 9b 36 bf 4a f2 68 be b9 73 48 3f
       -0.14741649 -0.71330625 -0.22748676 0.7830158
000090 72 fc 48 3e df 73 8d 3e 93 24 04 bf b3 d9 56 bf
       0.1962755 0.27627465 -0.5161831 -0.8392593
0000a0 b9 2f 05 40 83 ed e1 3f 6d 16 b5 3e 52 11 7b be
       2.0810378 1.7650608 0.35368672 -0.24518326
0000b0 3c 99 5f be df 86 9a bf 48 5e c6 be bb e8 d0 3f
       -0.21835798 -1.2072409 -0.38743806 1.6321024
0000c0 0b d3 e5 3d 65 f4 26 c0 cf f7 80 be 2f 18 3e bf
       0.11221894 -2.6086667 -0.25189063 -0.7425565
0000d0 8f 2e f2 3d fa bb 05 3f dd d7 8a bf a4 5d be 3d
       0.118252866 0.52239954 -1.0847126 0.09295204
0000e0 5a b7 82 bf fe e4 21 bf 8b 48 80 be 0e 7e c8 3d
       -1.0212204 -0.6324004 -0.25055346 0.09789668
0000f0 7e c7 c6 bf 2e 5d 39 bc cc 8c 49 3f f9 de 9b 3e
       -1.552963 -0.01131372 0.78730464 0.30443552
000100 05 39 43 3f 4b 4f 69 3f 78 64 f2 bd 1a 9c 07 3f
       0.7625888 0.91136616 -0.11835569 0.5297257
000110 e3 36 dd 3f 6d a5 9c 3f c9 94 69 3f 0f d3 0e c0
       1.7282375 1.2237984 0.91242653 -2.231632
000120 08 f3 24 3f a1 65 70 3f 6d f0 d6 be 67 73 97 3f
       0.64433336 0.93905073 -0.41980305 1.1832093
000130 eb 5b 90 3d f8 dc 03 bf 5f 01 c6 3e 1b 7f 61 3f
       0.07048782 -0.51509047 0.3867292 0.8808457
000140 d0 e1 2c 3f e7 45 07 bf 6f de bb bd bc 93 39 bf
       0.6753206 -0.5284104 -0.09173285 -0.7249105
000150 68 8b c6 bf 4a 85 25 bf d0 e5 a1 be d7 44 5c bf
       -1.5511293 -0.6465651 -0.31620646 -0.8604254
000160 3f 81 a1 be f4 a2 7b be ad 7e 18 bf ae c3 7c bf
       -0.3154392 -0.2457388 -0.5956829 -0.98736084
000170 39 9a f8 3e 92 14 00 3f a3 8f c1 bd 0c 99 e4 be
       0.48555163 0.5003139 -0.09451225 -0.44648015
000180 91 bc ce bf 90 f4 2d c0 4c 15 0f bf 4c 6a ba 3f
       -1.6151296 -2.718052 -0.5589187 1.4563689
000190 0c b7 ed 3f 6b 72 87 bf 0d e1 29 bf 80 cc 09 bf
       1.8571486 -1.0581793 -0.66359025 -0.5382767
0001a0 e0 5a cf 3e 22 ba 67 bf ee ba d9 3f cd aa b5 be
       0.4049902 -0.9051839 1.7010171 -0.35481873
0001b0 a0 45 d4 bd d6 7b 2f 3e 36 e4 83 3e e8 1b f2 bf
       -0.103648424 0.17137083 0.2576005 -1.8914766
0001c0 39 03 b2 be 76 83 e1 3e 04 b3 75 bf 0b bd 0a bd
       -0.34768084 0.4404561 -0.9597628 -0.03387169
0001d0 b6 15 05 40 74 d9 87 bf 66 75 8b bf 9a 13 c4 3e
       2.0794501 -1.0613236 -1.0895202 0.38296205
0001e0 f0 4f 95 3d 65 90 47 3f 41 a3 99 bf d0 76 8f 3d
       0.072906375 0.77954704 -1.2002946 0.070050836
0001f0 b7 e2 95 3d e1 39 07 bf 01 21 0a 3e 9d cd c7 bf
       0.07318633 -0.5282269 0.13489152 -1.5609623
000200 5b 86 89 3e 6f 07 db 3c 7a 3f 8e bd 5e b6 31 bf
       0.26860318 0.026736943 -0.06945701 -0.69418895
000210 6b 1a 53 3e 23 74 b7 bf 69 a2 73 3f a9 2f 7b 3e
       0.20615546 -1.4332317 0.95169693 0.245299
000220 01 7e 57 be 10 25 de 3f 5a 24 69 bf 72 20 aa 3f
       -0.2104416 1.735506 -0.91071093 1.3291152
000230 08 74 33 be a7 a4 b1 bf b9 b4 5c 3f b1 bb 9b 3f
       -0.17524731 -1.3878373 0.8621326 1.2166654
000240 55 9d 38 bf 11 14 f6 3f ac c5 98 3f f7 81 0b 3e
       -0.7211507 1.9224874 1.1935325 0.13623796
000250 01 07 e5 bf 2b 80 ca 3e 78 99 85 3f 40 6f 0e bf
       -1.7892762 0.3955091 1.043746 -0.55638504
000260 ae 26 88 bf 7a c6 af 3f 60 d3 88 bf 5c df 1e bf
       -1.0636804 1.3732445 -1.0689507 -0.6205957
000270 68 aa 63 bf 11 1a 04 3f 20 67 6e be d4 8a 4a 3f
       -0.88931894 0.51602274 -0.23281527 0.79118085
000280 21 2a 74 bf 1c a6 29 3e fc d3 9d 3f bb a5 46 40
       -0.95376784 0.16567272 1.2330317 3.1038654
000290 9c 8c e9 bf 7e ac 2e 3f f2 58 ca bf ac 39 c4 3e
       -1.8246036 0.6823195 -1.5808394 0.3832525
0002a0 a7 a1 95 3d 4e 1a c3 3e f8 44 d5 bf e3 ec 07 3f
       0.07306223 0.38106006 -1.6661673 0.53095835
0002b0 ae 71 54 bf 6f 9f 82 be 78 67 0f 3e 29 a3 91 3f
       -0.8298596 -0.25512263 0.14004314 1.1377918
0002c0 cb ec 14 bf 04 43 c3 3f b3 c6 6e 3d b7 35 30 3f
       -0.5817382 1.5254827 0.058294963 0.6883196
0002d0 81 59 b3 3e f3 f8 13 3f ac 09 e9 be 0f 9c 95 be
       0.35029224 0.5780174 -0.45515192 -0.29220626
0002e0 ae 92 a4 bf 6f 61 5e 3f 2e 9f 3c 3e ba a9 a3 be
       -1.2857263 0.8686742 0.18420097 -0.3196543
0002f0 d5 ff da 3f 7f 9a 05 bf 6d 41 d5 bf f2 88 fa be
       1.7109324 -0.5218887 -1.6660591 -0.48932606
000300 87 b5 62 bf f0 01 f0 3d 4f 80 a0 3f 88 c5 60 bd
       -0.8855824 0.117191195 1.2539157 -0.05487588
000310 5a 0f 66 3f 6a 5b 0b bf 63 9d 6d bf 0b f1 5b bf
       0.89867175 -0.5443636 -0.9281828 -0.8591468
000320 07 43 47 bf 3f f6 66 bf e2 be 86 40 38 e9 0e bf
       -0.7783665 -0.9021949 4.210801 -0.55824614
000330 5f af bf 40 f0 53 e6 bf 9d af f1 3f 4e 3f b7 40
       5.9901576 -1.7994366 1.8881718 5.7264776
000340 a3 05 c3 c0 e3 5d a1 bf a2 e8 52 40 bb 97 92 c0
       -6.094438 -1.2606777 3.2954488 -4.581022
000350 64 75 89 40 69 68 73 c0 10 43 a4 bf 05 9f f9 c0
       4.29558 -3.8032477 -1.2832966 -7.8006616
000360 26 8d e6 bf 8a 73 86 3e b7 c3 1b c0 bd 84 ca c0
       -1.8011825 0.26260024 -2.4338205 -6.3287034
000370 ed 4f 76 40 20 87 9e 3f 37 8e b8 3f 14 b6 06 bf
       3.8486283 1.2384987 1.44184 -0.5262158
000380 3d 08 75 3f 16 88 a6 3f 98 3d 92 c0 fa cd 9c 40
       0.95715696 1.301028 -4.570019 4.9001436
000390 21 9f 18 c0 2b 56 7e 40 a9 50 36 be 28 63 00 41
       -2.3847125 3.9740093 -0.17804207 8.024208
0003a0 d7 33 70 c0 d5 37 2a 40 8e 91 39 40 e5 a4 87 40
       -3.753164 2.6596577 2.899509 4.2388787
0003b0 3b 53 32 bf 59 72 9c 3e 58 86 20 c0 ba 63 bf 40
       -0.6965825 0.3055599 -2.5081997 5.9809237
0003c0 66 61 95 c0 47 cb f6 ba 6a e6 2e 40 54 d8 52 40
       -4.6681395 -0.0018828892 2.7328134 3.2944536
0003d0 d6 3b 5a 3f d5 19 96 40 e6 02 9c bf b6 c2 37 bf
       0.8524755 4.6906533 -1.2188385 -0.7178148
0003e0 5f 0f 3c 3f 83 67 fa 40 a5 55 84 be 42 b0 f0 be
       0.73460954 7.8251357 -0.25846592 -0.47009474
0003f0 6e 9a f0 bf 5f ec b9 bf b5 0a b0 bf ff 2c 8a c0
       -1.8797128 -1.452526 -1.3753268 -4.3179927

bias f4 [3]
000000 63 f2 06 3e 30 ce 63 be 0c f1 3c 3d
       0.131784 -0.22246623 0.046128318
